results/AutoEncoder/pretrained_AutoEncoder_model.pt (torch, 441313 bytes, 8 tensors)

0.weight f4 [128, 784]
-0.03368342 0.0039536036 -0.024516523 -0.049755152 -0.006367979 -0.054929648 -0.027159713 -0.011994851
-0.060660344 -0.033363037 0.01596394 -0.0403907 -0.02728369 -0.0125886435 -0.022176806 -0.011880035
-0.021775216 -0.016157135 -0.03958228 -0.0060377726 -0.022533376 -0.066202976 -0.05929191 -0.061586864
-0.0589237 -0.06345826 0.008905051 -0.010640019 0.023501568 -0.009260441 -0.025282415 -0.017280502
-0.039987415 -0.022602554 -0.0111420695 -0.0246201 -0.055357162 -0.061103165 0.015712678 -0.0073711495
-0.03634908 -0.009401268 0.01172783 -0.04473188 -0.031708524 -0.056236953 -0.017610477 0.00414267
-0.021331001 -0.057218134 -0.058048464 -0.044464987 -0.036305122 -0.022859586 -0.016688244 0.008776366
0.025256615 0.027125478 -0.033142947 -0.022799725 -0.058771674 -0.06530195 -0.06623673 -0.04716445
-0.046771735 -0.021794949 -0.029772293 -0.053014155 -0.011430162 -0.0034696434 -0.037699364 -0.040092263
-0.04052498 -0.0368937 -0.0497815 -0.03718075 0.0014898599 -0.053361468 -0.017655425 -0.013493874
-0.012724754 -0.06815998 -0.030982334 -0.019875338 -0.0213874 0.021909451 -0.012628387 -0.05970781
-0.044527955 -0.042202264 -0.04675522 -0.0044725365 -0.036336154 -0.011627222 -0.0066153575 -0.040646367
-0.03320932 0.017959837 -0.023309555 -0.044103954 -0.028024202 -0.038407415 -0.0039365017 0.009347932
-0.05114363 -0.026536215 -0.013083732 -0.035806227 -0.01100086 0.0013684874 -0.049667183 0.0035031403
-0.002910155 -0.027339209 -0.018088138 -0.06503119 -0.025307307 -0.0637279 -0.017378554 -0.0617146
-0.02452217 -0.048795093 -0.043009695 0.014117757 0.009850034 -0.0044257743 0.006867543 0.013394559
-0.04751366 -0.014164329 0.0013018851 0.008699883 -0.05000827 -0.011870301 -0.064114064 -0.035644867
-0.05920719 -0.013743125 -0.054276522 -0.05790768 -0.03471352 -0.043700017 -0.022820145 -0.018036837
-0.012352972 -0.034279034 -0.045715485 -0.03153552 -0.022573939 -0.0051087067 -0.054048445 -0.00837644
-0.016062478 -0.038174186 0.009953928 -0.04591471 -0.04095557 -0.053265393 -0.011131356 -0.02473024
-0.030571828 -0.03220339 -0.07047105 -0.0651855 0.00012384342 -0.03072699 -0.052283835 -0.05010995
-0.046795044 -0.063242175 -0.055632167 -0.029778434 -0.07083602 -0.015235733 -0.04545374 -0.061313223
-0.057877548 -0.02948916 -0.006634226 0.004214787 0.0056141606 -0.020454668 -0.0042765453 -0.0071664657
-0.015406078 0.0044980324 -0.04592106 -0.032052577 -0.00885178 -0.04421722 -0.017593628 -0.031042159
-0.0345349 -0.022850662 -0.033093948 -0.01466075 -0.0067307428 -0.046767056 -0.04735977 -0.01372804
-0.054765962 -0.018940242 -0.051485743 -0.019795747 -0.06467014 -0.022414861 0.012362716 -0.012950496
0.006048005 0.0080959005 -0.011964293 -0.02892019 -0.0519437 -0.03032078 -0.037702534 0.012328173
0.006586461 -0.03545208 -0.034586508 -0.0052435985 0.012529912 0.018483812 -0.013135518 0.002562585
-0.05958319 -0.018858546 -0.072015606 -0.02243254 -0.016991673 -0.019818678 -0.004056375 -0.05885047
-0.053441163 -0.004036763 -0.0602923 -0.04746154 -0.055277795 -0.0025087039 -0.043634765 -0.03783789
0.0027790314 -0.0004814139 -0.008123638 -0.025621658 0.0017265655 -0.011481459 -0.059747767 -0.04129089
-0.037169944 -0.03146742 -0.034987707 -0.03533764 -0.06033073 -0.06901039 -0.007538188 -0.07851383
00000000: a0f7 09bd 3b8d 813b e0d6 c8bc 0fcc 4bbd
00000010: 7baa d0bb e9fd 60bd 0c7e debc 0d86 44bc
00000020: fb76 78bd aea7 08bd cfc6 823c b870 25bd
00000030: 0c82 dfbc 9940 4ebc 22ac b5bc 7aa4 42bc
00000040: f061 b2bc f85b 84bc 0721 22bd 82d8 c5bb
00000050: ea97 b8bc 6d95 87bd 13dc 72bd 8242 7cbd
00000060: fa59 71bd 67f6 81bd 7ee6 113c 7953 2ebc
00000070: 5c86 c03c 1bb9 17bc 111d cfbc d78f 8dbc
00000080: d8c9 23bd fe28 b9bc 3a8d 36bc 18b0 c9bc
00000090: 31be 62bd 5047 7abd e0b7 803c af89 f1bb
000000a0: c6e2 14bd c707 1abc 1626 403c c738 37bd
000000b0: cce0 01bd b858 66bd d943 90bc 3cbf 873b
000000c0: 5abe aebc 905d 6abd 3ac4 6dbd eb20 36bd
000000d0: aeb4 14bd 0744 bbbc c9b5 88bc bfca 0f3c
000000e0: f6e6 ce3c 4036 de3c e6c0 07bd 7dc6 babc
000000f0: 91ba 70bd 07bd 85bd 1fa7 87bd 832f 41bd
00000100: b893 3fbd 528b b2bc 06e5 f3bc 5f25 59bd
00000110: 9345 3bbc f562 63bb a66a 1abd c937 24bd
00000120: 85fd 25bd d91d 17bd b0e7 4bbd d84a 18bd
00000130: 6747 c33a 8e91 5abd 1ca2 90bc 6915 5dbc
00000140: 7d7b 50bc 7697 8bbd aace fdbc 9bd1 a2bc
00000150: a134 afbc 737b b33c 4be7 4ebc 2d90 74bd
00000160: f262 36bd 48dc 2cbd 6782 3fbd 5b8e 92bb
00000170: 38d5 14bd 1b80 3ebc a4c5 d8bb ce7c 26bd
00000180: 7f06 08bd 8220 933c aef3 bebc 59a6 34bd
00000190: 0393 e5bc 1851 1dbd c5fd 80bb 1228 193c
000001a0: fc7b 51bd 7a62 d9bc 265d 56bc 8da9 12bd
000001b0: f33c 34bc d15e b33a d16f 4bbd f194 653b
000001c0: 4db8 3ebb 7af6 dfbc 932d 94bc 132f 85bd
000001d0: 4551 cfbc c683 82bd 785d 8ebc 73c8 7cbd
000001e0: b8e2 c8bc 5ddd 47bd ef2a 30bd 2a4e 673c
000001f0: 0962 213c 1606 91bb 2009 e13b da74 5b3c
00000200: af9d 42bd 8011 68bc 04a4 aa3a f489 0e3c
00000210: 79d5 4cbd a77b 42bc 3c4e 83bd 5a00 12bd
00000220: 3d83 72bd d82a 61bc 0f51 5ebd 9a30 6dbd
00000230: c42f 0ebd cafe 32bd 50f1 babc fdc1 93bc
00000240: 1f64 4abc 2c68 0cbd 2940 3bbd 642b 01bd
00000250: fbec b8bc f066 a7bb e761 5dbd 563d 09bc
00000260: 7595 83bc 895c 1cbd cd15 233c 1011 3cbd
00000270: 07c1 27bd d02c 5abd 4a60 36bc 1397 cabc
00000280: c571 fabc b4e7 03bd 2053 90bd fa7f 85bd
00000290: f7db 0139 2bb7 fbbc 9327 56bd 1740 4dbd
000002a0: 29ac 3fbd 1d85 81bd 8ede 63bd e7f1 f3bc
000002b0: 7a12 91bd 4c9f 79bc b32d 3abd 9323 7bbd
000002c0: 0211 6dbd 4093 f1bc ec63 d9bb 321c 8a3b
000002d0: fef6 b73b 8c90 a7bc 4322 8cbb acd4 eabb
000002e0: c669 7cbc 3b64 933b b917 3cbd 9049 03bd
000002f0: 0e07 11bc 1e1d 35bd 8320 90bc 204c febc
00000300: 7874 0dbd 5031 bbbc 858d 07bd a433 70bc
00000310: 908d dcbb d08e 3fbd 51fc 41bd 93eb 60bc
00000320: 4652 60bd 9128 9bbc b7e2 52bd b12a a2bc
00000330: c771 84bd 5f9f b7bc fd8c 4a3c 512e 54bc
00000340: 582e c63b aba4 043c e205 44bc 09ea ecbc
00000350: ebc2 54bd 4963 f8bc f96d 1abd 1bfc 493c
00000360: 3dd3 d73b 3336 11bd 95aa 0dbd 7ed2 abbb
00000370: 434a 4d3c 5d6b 973c 5b36 57bc 0bf1 273b
00000380: 810d 74bd 3d7d 9abc eb7c 93bd 72c4 b7bc
00000390: 1f32 8bbc c85a a2bc 57eb 84bb 310d 71bd
000003a0: 1fe5 5abd d346 84bb 0ff5 76bd 0867 42bd
000003b0: f86a 62bd 1169 24bb 5eba 32bd e7fb 1abd
000003c0: 6920 363b 4866 fcb9 0219 05bc 83e4 d1bc
000003d0: ed4d e23a bb1c 3cbc 13ba 74bd a320 29bd
000003e0: 833f 18bd fbe3 00bd 454f 0fbd 34be 10bd
000003f0: 5b1d 77bd 5255 8dbd e702 f7bb dccb a0bd

0.bias f4 [128]
0.0047769705 -0.002206226 -0.011030438 -0.012902652 -0.49085787 -0.04574847 -0.36845192 -0.05872912
-0.027600566 -0.54689074 -0.5153668 -0.016594827 0.036231764 -0.021554224 -0.052556094 -0.010209962
-1.0171576 -0.054498427 0.40094906 0.55390894 -0.4964877 -0.025220534 -0.93222606 0.0022085297
0.8243322 0.007847473 -0.05073184 0.010340101 -0.19242997 0.11908497 0.011029481 -0.054582763
-0.047432583 -0.5489313 -0.051564112 -0.046043552 -0.011550756 0.04034996 -0.05950745 0.007521994
-0.038559116 -0.016599514 -0.015812136 -0.86677223 0.13332164 -0.01686471 -0.05235445 0.25888067
-0.043255705 -0.042406548 -0.20978932 -0.20771195 -0.009025154 -0.040144708 -0.008333745 -0.06370976
-0.017520266 -0.030198669 0.6756481 -0.027684228 -0.048054308 -0.029350197 -0.22389847 0.17350149
-0.034083057 -0.002212171 -0.31542686 -0.03271858 0.38197908 -0.02150887 0.43467295 -0.06250438
0.29454088 -0.038427114 -0.01914836 -0.27743113 -0.009831694 -0.010991019 -0.011186875 -0.021758089
-0.03497202 -0.49289307 -0.025034409 -0.06479982 -0.036584597 0.0034385948 -0.034957327 -0.004734373
0.5338514 -0.52931833 0.02901414 -0.002083049 -0.04136162 0.0014339507 0.23913713 -0.020754384
-0.025725923 -0.8520972 -0.43793294 -0.018467007 -0.050765157 -0.051127087 -0.03456089 0.023804983
-0.0903741 0.62021875 0.031437773 -0.01096253 -0.009065975 0.53776115 0.91681504 -0.06477901
-0.004925994 0.049813353 -0.038384907 0.055705424 -0.39435297 -0.7072117 -0.09258028 -1.3774045
0.0035981226 -0.018757207 -0.031291377 -0.37783214 -0.011538626 0.01586277 -0.052285884 0.6531171
00000000: 2288 9c3b 5596 10bb 03b9 34bc a565 53bc
00000010: b951 fbbe bf62 3bbd bba5 bcbe f28d 70bd
00000020: 951a e2bc 0801 0cbf 14ef 03bf e0f1 87bc
00000030: c267 143d 7c92 b0bc 0f45 57bd af47 27bc
00000040: 3832 82bf be39 5fbd 3249 cd3e facc 0d3f
00000050: a333 febe 4b9b cebc 5ea6 6ebf fbbc 103b
00000060: 6f07 533f b092 003c 31cc 4fbd 8769 293c
00000070: 5d0c 45be d2e2 f33d ffb4 343c 2d92 5fbd
00000080: ab48 42bd c386 0cbf e434 53bd 2a98 3cbd
00000090: 623f 3dbc 0046 253d 15be 73bd 0f7b f63b
000000a0: 2af0 1dbd b4fb 87bc 7488 81bc c9e4 5dbf
000000b0: 7885 083e dc27 8abc 9f71 56bd 028c 843e
000000c0: e52c 31bd 7db2 2dbd 03d3 56be 71b2 54be
000000d0: 3dde 13bc c76e 24bd 438a 08bc 437a 82bd
000000e0: a986 8fbc 3363 f7bc 46f7 2c3f 09ca e2bc
000000f0: 98d4 44bd d36f f0bc a445 65be 60aa 313e
00000100: ad9a 0bbd 12fa 10bb a17f a1be eb03 06bd
00000110: c392 c33e 5f33 b0bc 748d de3e 4c02 80bd
00000120: 10ce 963e c065 1dbd 05dd 9cbc 740b 8ebe
00000130: 1d15 21bc ad13 34bc 2849 37bc 053e b2bc
00000140: d23e 0fbd 7b5c fcbe f614 cdbc c5b5 84bd
00000150: bbd9 15bd 0c5a 613b 6a2f 0fbd cd22 9bbb
00000160: 7caa 083f 6881 07bf 10af ed3c c383 08bb
00000170: cd6a 29bd 67f3 bb3a 5de0 743e 1905 aabc
00000180: 2cbf d2bc 0b23 5abf bf38 e0be 1f48 97bc
00000190: 20ef 4fbd a36a 51bd b88f 0dbd ab02 c33c
000001a0: 0e16 b9bd a8c6 1e3f e5c4 003d 2f9c 33bc
000001b0: 7589 14bc b7aa 093f 64b4 6a3f dcaa 84bd
000001c0: 3c6a a1bb 1609 4c3d 7e39 1dbd 5f2b 643d
000001d0: a2e8 c9be d30b 35bf bb9a bdbd ca4e b0bf
000001e0: 7bce 6b3b b7a8 99bc 632b 00bd 3773 c1be
000001f0: 810c 3dbc a4f2 813c b929 56bd af32 273f

2.weight f4 [64, 128]
-0.029884685 0.0017431298 -0.024253871 -0.033792194 0.002277026 0.0029382093 -0.10623554 -0.066442244
-0.016543865 -0.026719633 0.03131306 0.025856305 0.008717494 0.038243856 0.04612549 -0.075109765
-0.0421772 -0.094995104 -0.078334995 -0.031515203 -0.13144621 -0.032622702 -0.04233345 0.046955645
-0.094881184 0.029441753 -0.074104294 -0.08383111 -0.006564899 0.0580681 0.0005049614 0.04128075
0.048250858 0.07524581 -0.029310629 0.024945183 0.013938967 -0.06560024 -0.045739837 -0.046500158
-0.015718458 -0.005779944 0.020983826 -0.06449153 -0.064218245 0.022451509 -0.028974915 -0.16026208
-0.04373419 -0.05566588 0.04562484 -0.04929486 0.005455848 0.026425598 -0.013453637 0.0054760594
-0.06852372 -0.054542135 -0.09390876 0.03958479 -0.028905788 -0.07456997 -0.15156588 -0.16104934
0.05641634 -0.08768577 -0.023632368 -0.02958073 0.0559809 -0.022747023 0.022379257 0.05929615
-0.09184402 -0.099254854 -0.009209137 -0.08940763 0.08432364 -0.031294942 -0.03679277 0.0023217576
-0.0824355 -0.0813067 -0.053205535 -0.051000252 0.072511725 -0.087514974 0.0069667418 0.08273309
-0.020378193 -0.054353576 -0.10820671 -0.0830911 0.0012251093 -0.02127009 -0.0854124 0.00034599402
-0.015742984 0.0470304 0.021538278 -0.062085193 0.012354142 0.022615489 -0.051417813 -0.03521003
-0.02042141 0.035773486 0.0055393972 0.07742632 0.07539411 -0.11270821 -0.09274143 -0.09816215
-0.019426225 -0.017605275 -0.053181503 0.015365875 -0.025466776 -0.11449205 -0.07326639 -0.048107713
-0.058666438 -0.066527545 0.023619458 -0.09893056 0.0068039154 -0.05119893 -0.017291114 -0.0012552183
0.040446837 -0.08446185 0.07193335 -0.0006124828 -0.11415702 -0.031329777 0.04557942 -0.021182107
-0.11556835 -0.011349963 0.05188445 0.01869856 0.06028631 0.03467118 -0.016511967 -0.00039430184
-0.08612154 -0.020038908 -0.10523621 -0.05392534 -0.043601837 0.03167624 0.040091462 -0.11590514
-0.039948568 -0.05621177 0.009486232 0.059843417 0.0003807047 0.022728303 0.024197645 0.05100561
-0.026973302 -0.076454535 0.040290736 -0.08674915 0.052816823 0.007651124 -0.014385991 0.011019586
0.001334877 0.051132143 0.045689788 -0.0711177 0.035534967 0.041936036 0.05060276 -0.0013835252
-0.01806412 -0.03258023 -0.10009739 -0.018533714 0.0381777 0.019117441 0.025352933 0.01193752
-0.05981856 -0.050682113 -0.094266124 -0.03718588 0.029893393 0.046446376 -0.08703266 -0.08155997
-0.062238645 0.057539247 -0.04885395 -0.042451754 -0.03489331 0.01812096 -0.0969463 0.05811706
-0.09800325 -0.09803874 -0.02591327 -0.07027394 -0.05318555 0.015698077 0.033338226 0.050009344
-0.077629834 0.022275178 0.02147431 -0.113700196 -0.00065512344 -0.030310001 -0.007066126 -0.049147047
-0.0443559 -0.048561897 -0.0753125 -0.030111402 -0.07390618 -0.08313499 -0.1001494 -0.038540073
-0.024094637 -0.10571222 0.060482223 -0.007029758 -0.04312135 0.05043496 0.056944672 0.022417046
-0.082561 -0.03252445 -0.07646227 -0.027324883 0.031179342 -0.07246151 -0.0052727996 -0.01975609
-0.05812238 0.03264868 0.040681932 -0.09199474 -0.011949036 0.008119989 0.011309221 -0.030322565
0.029427709 -0.0723964 -0.039372988 0.027944528 0.029385045 -0.01992489 -0.06942363 -0.09383616
00000000: bad0 f4bc bb79 e43a 0eb0 c6bc af69 0abd
00000010: 283a 153b f98e 403b 0592 d9bd df12 88bd
00000020: 0087 87bc 22e3 dabc 2042 003d 9ad0 d33c
00000030: d2d3 0e3c 97a5 1c3d 15ee 3c3d 26d3 99bd
00000040: 00c2 2cbd cb8c c2bd 196e a0bd 1616 01bd
00000050: d699 06be 629f 05bd d765 2dbd 9054 403d
00000060: 1151 c2bd d52f f13c fec3 97bd a5af abbd
00000070: 5d1e d7bb d1d8 6d3d 635f 043a 0116 293d
00000080: b1a2 453d 7a1a 9a3d d81c f0bc d759 cc3c
00000090: 4460 643c 6b59 86bd b259 3bbd f376 3ebd
000000a0: ffc3 80bc af65 bdbb 46e6 ab3c 2314 84bd
000000b0: db84 83bd 3aec b73c cd5c edbc be1b 24be
000000c0: 9f22 33bd e801 64bd 1de1 3a3d 68e9 49bd
000000d0: f8c6 b23b 7f7a d83c a56c 5cbc 8470 b33b
000000e0: 2a56 8cbd 9367 5fbd 3c53 c0bd a923 223d
000000f0: d5cb ecbc 24b8 98bd 1634 1bbe 1eea 24be
00000100: d214 673d 9994 b3bd ab98 c1bc 4953 f2bc
00000110: 3a4c 653d f757 babc b454 b73c 85e0 723d
00000120: b818 bcbd 2146 cbbd ece1 16bc 591b b7bd
00000130: dfb1 ac3d 202f 00bd 04b4 16bd a128 183b
00000140: f2d3 a8bd 2184 a6bd 0cee 59bd a4e5 50bd
00000150: 0781 943d 0d3b b3bd 4449 e43b f76f a93d
00000160: 2bf0 a6bc dba1 5ebd 7b9b ddbd ab2b aabd
00000170: d993 a03a 9d3e aebc b2ec aebd 8866 b539
00000180: 6ef7 80bc f3a2 403d 0b71 b03c 0b4d 7ebd
00000190: 0769 4a3c 1e44 b93c 7c9b 52bd 6438 10bd
000001a0: cd4a a7bc 3887 123d d583 b53b b191 9e3d
000001b0: 3a68 9a3d 90d3 e6bd 38ef bdbd 3d09 c9bd
000001c0: bf23 9fbc f038 90bc d9d4 59bd 27c1 7b3c
000001d0: b39f d0bc cf7a eabd b00c 96bd 980c 45bd
000001e0: 384c 70bd 983f 88bd 987d c13c 1b9c cabd
000001f0: 61f3 de3b f8b5 51bd 18a6 8dbc 2386 a4ba
00000200: 95ab 253d 56fa acbd cb51 933d 068f 20ba
00000210: 28cb e9bd a753 00bd 7cb1 3a3d 1986 adbc
00000220: 19af ecbd 32f5 39bc ca84 543d b92d 993c
00000230: c7ee 763d 5e03 0e3d 1b44 87bc 4cba ceb9
00000240: 7d60 b0bd a328 a4bc 1586 d7bd d1e0 5cbd
00000250: d797 32bd f2be 013d f236 243d ad5f edbd
00000260: 1ca1 23bd 503e 66bd 246c 1b3c 5f1e 753d
00000270: 5299 c739 b530 ba3c 243a c63c 42eb 503d
00000280: 1df7 dcbc 3294 9cbd e607 253d 8aa9 b1bd
00000290: 7456 583d 48b6 fa3b 38b3 6bbc 7e8b 343c
000002a0: 0af7 ae3a f06f 513d 3725 3b3d 28a6 91bd
000002b0: 1d8d 113d 1fc5 2b3d d744 4f3d 6757 b5ba
000002c0: 35fb 93bc d972 05bd dcff ccbd 04d4 97bc
000002d0: 3860 1c3d 2e9c 9c3c f4b0 cf3c 9695 433c
000002e0: 4e04 75bd 0c98 4fbd 990e c1bd 3950 18bd
000002f0: fde2 f43c 8e3e 3e3d 2e3e b2bd ea08 a7bd
00000300: f3ed 7ebd 46ae 6b3d 141b 48bd e4e1 2dbd
00000310: 4aec 0ebd 6872 943c c88b c6bd 280c 6e3d
00000320: eeb5 c8bd 89c8 c8bd 1148 d4bc c9eb 8fbd
00000330: 17d9 59bd 4199 803c aa8d 083d 99d6 4c3d
00000340: 64fc 9ebd 6f7a b63c e4ea af3c a6db e8bd
00000350: 97bc 2bba ae4c f8bc f68a e7bb 6a4e 49bd
00000360: 88ae 35bd d7e8 46bd 713d 9abd 30ac f6bc
00000370: 205c 97bd ad42 aabd 211b cdbd 32dc 1dbd
00000380: 1e62 c5bc a67f d8bd 35bc 773d e259 e6bb
00000390: 03a0 30bd e394 4e3d d13e 693d f4a3 b73c
000003a0: be15 a9bd 5c38 05bd 4098 9cbd 6fd8 dfbc
000003b0: d26b ff3c b366 94bd 73c7 acbb 86d7 a1bc
000003c0: bc11 6ebd 9fba 053d 19a2 263d bd67 bcbd
000003d0: e4c5 43bc b409 053c 504a 393c 0767 f8bc
000003e0: 6112 f13c 9044 94bd 9245 21bd eceb e43c
000003f0: e8b8 f03c 8639 a3bc fa2d 8ebd 2c2d c0bd

2.bias f4 [64]
-0.107558474 -0.07085659 -0.2506977 0.00945958 0.73261666 -0.17388429 0.035744213 0.7339769
-0.0809763 -0.16386653 -0.090690926 -0.4810381 -0.16737194 0.906192 -0.06719377 -0.061885156
-0.060507145 -0.12945062 -0.0861029 -0.12268948 -0.1708446 0.49220803 -0.07015896 -0.041125674
-0.16504681 0.004332679 -0.05139018 0.8592144 0.43152583 0.39010853 -0.008959061 -0.026522804
0.05750448 -0.08605028 -0.019255826 1.0997654 0.40357807 0.60476875 0.051370464 -0.07851873
-0.08591905 0.58393526 0.23803116 0.018648105 0.18924613 -0.14703804 -0.23921433 -0.18685259
-0.13461143 -0.2084299 -0.0965594 -0.20849371 1.1774013 -0.1704244 -0.11171331 0.3529369
0.062122677 -0.056695793 -0.0037569145 -0.09405732 -0.12034892 -0.06073128 1.033111 -0.17705038
00000000: 9e47 dcbd 431d 91bd 735b 80be 5bfc 1a3c
00000010: c48c 3b3f b90e 32be 8668 123d e9e5 3b3f
00000020: e7d6 a5bd a1cc 27be 2abc b9bd a04a f6be
00000030: 8d63 2bbe 33fc 673f e39c 89bd 4a7b 7dbd
00000040: 57d6 77bd b48e 04be b856 b0bd 9f44 fbbd
00000050: e3f1 2ebe b102 fc3e 80af 8fbd 6573 28bd
00000060: 0802 29be 25f9 8d3b 827e 52bd 7af5 5b3f
00000070: f4f0 dc3e 4ebc c73e 06c9 12bc 5a46 d9bc
00000080: d189 6b3d 213b b0bd 65be 9dbc 1dc5 8c3f
00000090: c9a1 ce3e 20d2 1a3f d669 523d 6ece a0bd
000000a0: 54f6 afbd c87c 153f 71be 733e e9c3 983c
000000b0: bdc9 413e 2491 16be 9af4 74be 4956 3fbe
000000c0: 94d7 09be a66e 55be efc0 c5bd 607f 55be
000000d0: 16b5 963f bc83 2ebe f3c9 e4bd 25b4 b43e
000000e0: 5974 7e3d d939 68bd 9136 76bb 20a1 c0bd
000000f0: 7f79 f6bd 5dc1 78bd fb3c 843f b24c 35be

4.weight f4 [12, 64]
-0.007975534 -0.028094485 -0.15663382 -0.059875302 -0.25852856 0.063721076 -0.100558415 -0.092057325
0.013979211 0.09746957 0.05496314 -0.18137868 -0.04615286 -0.37401018 -0.2417693 -0.06813082
-0.11083074 -0.07232562 0.08636364 -0.101196215 -0.08504417 -0.17083064 0.096575275 0.011237785
0.10303709 0.09118855 0.10445358 -0.043370627 -0.042930238 -0.07844159 -0.10581684 -0.08912592
-0.11769438 -0.053233877 0.107557684 -0.02315021 -0.23252073 -0.21614955 0.12042707 -0.09318057
0.08343504 -0.06544423 -0.07592587 -0.06073737 -0.31582603 0.008512273 -0.11533801 -0.0144498795
-0.007869691 -0.11478217 -0.11741902 -0.048293114 -0.09414662 0.07117005 0.03502135 -0.0877346
-0.08146681 -0.06679535 0.0012331009 0.04354039 -0.01834552 -0.01936379 -0.14910468 0.03629303
0.12784424 -0.028219465 -0.15939331 -0.19420134 -0.24716793 -0.06296461 -0.004200524 -0.19286034
0.11418932 0.019657964 0.004229394 -0.27806515 -0.011159381 -0.121172324 -0.037520017 0.0014479816
0.0024446829 0.09106483 0.008950492 0.031373333 -0.1993899 -0.17258798 -0.004023213 -0.062436223
0.06780876 0.0414148 -0.020834535 -0.19907105 -0.19827364 -0.1892109 -0.07156331 0.120130256
-0.011955988 -0.106952004 -0.037877336 -0.22895339 -0.14281657 -0.058815945 0.107713 -0.093123786
-0.038657118 -0.122004196 -0.10654704 -0.08171236 -0.031866077 0.055925176 0.09989817 -0.051765658
-0.08986164 0.04538298 0.06397694 -0.026260182 -0.15396018 -0.019465312 -0.044096284 -0.15717445
0.055931173 0.10718774 -0.06093889 0.12345312 -0.07011921 -0.12124756 -0.03413337 0.09519887
0.008178914 -0.06947479 0.19215113 0.064230874 0.07831789 0.15629895 -0.13656919 0.09138895
0.07247581 0.016508574 0.00524265 -0.21493499 0.0084633995 0.032312185 0.15022875 -0.021293316
0.17960358 -0.17227691 0.072663434 -0.12901701 -3.0528107 0.11561873 0.09673 -0.014975364
-0.07831283 -0.24926837 0.012544275 0.20077418 0.007638543 0.18459478 -0.088443436 0.091943875
-0.03661457 -0.06815198 0.012747151 0.010071477 0.17649028 0.19048212 0.00018685005 -0.039649937
-0.0033271282 0.03163185 -0.072878376 0.068528876 0.10546917 0.004290162 -0.029715208 0.060918063
0.024564192 0.12644821 0.1776607 0.06688808 0.13777812 -0.009134824 0.026068639 0.08726712
0.009374029 -0.04259079 0.12083581 0.06325472 0.09581248 -0.008604708 0.04627521 -0.04082667
0.03648212 -0.07090716 -0.011947819 0.05091021 -0.03603717 0.079681985 -0.014234289 0.05654355
-0.13919763 -0.07720408 -0.044733986 -0.10857902 0.08826898 -0.0059912186 -0.08643949 0.07034969
-0.050574258 0.09007317 -0.07516369 -0.005708971 -0.06829053 -0.078052424 -0.009288102 0.03304115
0.09456083 0.07324934 -0.08136588 -0.014021266 -0.085851386 -0.09494702 -0.10063663 0.019832179
-0.047375157 -0.15191378 0.064303204 -0.12924229 -0.07514635 -0.11522083 -0.037360415 -0.03031706
0.07599282 -0.08233469 -0.029812252 0.02794706 0.05996389 -0.07526332 -0.11213046 0.09338471
0.09662523 0.035975948 -0.13621311 0.015914861 -0.0066665947 0.044271823 -0.12571266 0.012193448
-0.029856488 -0.07801226 0.02789691 0.095903635 -0.11992854 0.10126832 -0.019700097 -0.026593436
00000000: d0ab 02bc 6826 e6bc 9e64 20be ce3f 75bd
00000010: db5d 84be 3280 823d 92f1 cdbd 8d88 bcbd
00000020: 1009 653c 209e c73d 0821 613d 55bb 39be
00000030: c80a 3dbd 437e bfbe 5f92 77be 2c88 8bbd
00000040: 3afb e2bd 741f 94bd 6cdf b03d f63f cfbd
00000050: a32b aebd 3aee 2ebe 42c9 c53d b01e 383c
00000060: 1c05 d33d 10c1 ba3d c2eb d53d 66a5 31bd
00000070: 9ed7 2fbd fca5 a0bd 80b6 d8bd a687 b6bd
00000080: c009 f1bd c40b 5abd 3447 dc3d 82a5 bdbc
00000090: ea19 6ebe 4f56 5dbe 78a2 f63d 74d5 bebd
000000a0: fedf aa3d a007 86bd 067f 9bbd c0c7 78bd
000000b0: f3b3 a1be 1077 0b3c 5636 ecbd 30bf 6cbc
000000c0: e0ef 00bc ea12 ebbd 6279 f0bd 00cf 45bd
000000d0: f1cf c0bd 9ac1 913d 8c72 0f3d 33ae b3bd
000000e0: 12d8 a6bd 00cc 88bd 00a0 a13a 6857 323d
000000f0: 5849 96bc d0a0 9ebc e6ae 18be 00a8 143d
00000100: 9ae9 023e 822c e7bc 0038 23be b7dc 46be
00000110: 9719 7dbe 97f3 80bd 8da4 89bb 2e7d 45be
00000120: 17dc e93d bd09 a13c ba96 8a3b 8e5e 8ebe
00000130: d6d5 36bc 3229 f8bd 97ae 19bd 33ca bd3a
00000140: f936 203b 3380 ba3d 16a5 123c 5381 003d
00000150: de2c 4cbe e7ba 30be 28d5 83bb 20bd 7fbd
00000160: 52df 8a3d 91a2 293d 30ad aabc 48d9 4bbe
00000170: 3f08 4bbe 81c0 41be c98f 92bd da06 f63d
00000180: 0ce3 43bc a709 dbbd 4425 1bbd c272 6abe
00000190: 823e 12be fde8 70bd a298 dc3d afb7 bebd
000001a0: ed56 1ebd 56dd f9bd 5635 dabd cf58 a7bd
000001b0: 0186 02bd cc11 653d 6997 cc3d 3a08 54bd
000001c0: 6109 b8bd 81e3 393d 5806 833d 981f d7bc
000001d0: bda7 1dbe b875 9fbc 4e9e 34bd 57f2 20be
000001e0: 1618 653d 3f85 db3d 0f9b 79bd fdd4 fc3d
000001f0: a99a 8fbd a450 f8bd 6fcf 0bbd a0f7 c23d
00000200: da00 063c cc48 8ebd 44c3 443e 7a8b 833d
00000210: 2165 a03d d50c 203e cbd8 0bbe 212a bb3d
00000220: 336e 943d fd3c 873c 89ca ab3b eb17 5cbe
00000230: 12aa 0a3c c859 043d 91d5 193e 526f aebc
00000240: 00ea 373e 5c69 30be 91d0 943d 091d 04be
00000250: 4061 43c0 83c9 ec3d 611a c63d 3b5b 75bc
00000260: 7a62 a0bd 3540 7fbe 8186 4d3c bf97 4d3e
00000270: be4c fa3b 6a06 3d3e d521 b5bd 124d bc3d
00000280: 29f9 15bd 4493 8bbd 6dd9 503c d602 253c
00000290: deb9 343e bf0d 433e 2eed 4339 f967 22bd
000002a0: f30b 5abb 6690 013d 4241 95bd de58 8c3d
000002b0: 3800 d83d 7d94 8c3b 4f6d f3bc 3885 793d
000002c0: d83a c93c a47b 013e b0ec 353e 9efc 883d
000002d0: b515 0d3e 3baa 15bc e68d d53c 1bb9 b23d
000002e0: 8795 193c ae73 2ebd c478 f73d b18b 813d
000002f0: 5539 c43d c3fa 0cbc 138b 3d3d de39 27bd
00000300: 476e 153d c637 91bd c9c0 43bc 3987 503d
00000310: b69b 13bd 4f30 a33d ef36 69bc 369a 673d
00000320: d389 0ebe 2c1d 9ebd fc3a 37bd ad5e debd
00000330: 5ec6 b43d fc51 c4bb 3007 b1bd 8013 903d
00000340: f426 4fbd 4878 b83d 6cef 99bd 5212 bbbb
00000350: e8db 8bbd f3d9 9fbd 202d 18bc 2856 073d
00000360: 1ca9 c13d c003 963d 28a3 a6bd 74b9 65bc
00000370: dad2 afbd 9573 c2bd 941a cebd 1877 a23c
00000380: 740c 42bd 498f 1bbe 66b1 833d 1758 04be
00000390: 54e6 99bd e6f8 ebbd 3c07 19bd 7c5b f8bc
000003a0: 20a2 9b3d 179f a8bd d338 f4bc 3cf1 e43c
000003b0: b29c 753d a823 9abd a8a4 e5bd 7c40 bf3d
000003c0: 73e3 c53d 845b 133d 737b 0bbe e25f 823c
000003d0: 7373 dabb 5f56 353d d2ba 00be 07c7 473c
000003e0: 9895 f4bc e4c4 9fbd 1088 e43c 2069 c43d
000003f0: 189d f5bd c465 cf3d 1962 a1bc 7ada d9bc

4.bias f4 [12]
-0.3309399 -0.01689208 0.19356644 -0.14285423 0.039443646 0.6077783 -0.124441184 -0.0105986595
0.7466564 0.056403834 -0.16652425 -0.22907825
00000000: f470 a9be 4261 8abc 4836 463e 6148 12be
00000010: a98f 213d 5c97 1b3f 05db febd 00a6 2dbc
00000020: e024 3f3f b507 673d 5585 2abe 7d93 6abe

6.weight f4 [3, 12]
-0.06711357 0.08010179 0.019214023 0.029450145 -0.11865933 0.027649287 0.20223221 -0.215164
0.34305555 -0.23580581 0.020282049 0.07464291 0.09071963 -0.12118886 -0.18923473 -0.25701377
-0.20846552 0.22488506 -0.2280353 -0.076236926 0.026264194 0.18534215 0.11095264 -0.024997413
-0.051720258 0.053941004 -0.31627142 0.06555567 -0.05156854 -0.1123339 0.02949149 -0.25981116
-0.016596522 0.067445464 -0.15861593 -0.21210213
00000000: d772 89bd 680c a43d ba66 9d3c 6e41 f13c
00000010: aa03 f3bd c280 e23c f615 4f3e f453 5cbe
00000020: faa4 af3e 1477 71be 8a26 a63c 62de 983d
00000030: 37cb b93d dd31 f8bd c0c6 41be 4f97 83be
00000040: fc77 55be 4548 663e 1682 69be 1b22 9cbd
00000050: 0228 d73c 55ca 3d3e 233b e33d 60c7 ccbc
00000060: 9fd8 53bd 3ef1 5c3d 54ee a1be 0d42 863d
00000070: 8939 53bd 510f e6bd 2398 f13c f805 85be
00000080: 6ef5 87bc d920 8a3d 376c 22be 4d31 59be

6.bias f4 [3]
-0.08010767 0.118264094 -0.14115885
00000000: 7d0f a4bd 7234 f23d f28b 10be
