results/Denoising_AutoEncoder/pretrained_Denoising_AutoEncoder_model.pt (torch, 441413 bytes, 8 tensors)

0.weight f4 [128, 784]
00000000: dd91 a7bc 4b90 013d e7c2 ce3b 0728 06bd
00000010: bac3 8abc 5243 8ebc 0d76 3c3c 74fc c03c
00000020: 0452 613c 9372 24bd cc6e bbbc e5d5 e9bc
00000030: 04ff a93b cd32 23bd 8d33 0cbc 1ead 91bb
00000040: 307d a5bc 809b 9e3a fb72 5ebd 8f49 8d3b
00000050: 9d71 5abc df5b fc3a 1bee db3c d6a8 643d
00000060: f71a 563c 38f5 6c3d cf34 2d3d d0b1 3bbc
00000070: c0a8 2ebd b2df 803c 339b 80bd 9252 dcbc
00000080: e4a1 e4bc 78d2 653c 61fc b6bc 2e54 e1bb
00000090: acef c4bc 3ed2 cabc e107 e0bc 8ad5 65bd
000000a0: 12e8 55bd cbbf 7cbd 9d7b 8c3b 95b6 c8bb
000000b0: b055 06bd 6435 51bd 26de 0d3c 2825 63bc
000000c0: 4a61 e1bc cbd8 54bb ffdf cb3c 040a 15bd
000000d0: d8c0 59bc 83e4 643c 6138 1cbd 7ae7 993c
000000e0: d3c0 6c3c ed52 40bc 9065 89bc 23f4 033d
000000f0: a3fe 303c 974c dcbb ff28 9dbc 3ed1 ed3b
00000100: 7f7c 88bc 432d 1fbd 149b 10bd f650 943a
00000110: 57d7 02bd 3fb7 023c 575c 7bbd 2964 cab9
00000120: cedb f4ba 7093 5ebc 9deb fa3a 72c2 92bc
00000130: e815 713c 1232 96bb 58a4 5d3c 80c5 b1bc
00000140: 9862 0c3c 3ac5 20bd e7be 773d a62b 05bd
00000150: e22a 27bd 3df8 84bb b6fa 3ebc 747c 88bc
00000160: 431d d9bc 44a8 e5bc 5f66 81bd ef1f 84bb
00000170: 9ba4 0abd 0fd6 04bd 8ce8 0fbd 261d d3bc
00000180: 446e 36bd cd66 b0bc 9f03 4cbd 6831 cb3b
00000190: 6a3f ea3b bce6 5b3c 943f 03bd fda5 1ebc
000001a0: 45da cbbc a3d0 3e3b d2a3 10bd e1a6 8c3c
000001b0: 7952 123d 4664 caba d4f0 413d 0302 cdbc
000001c0: ded6 48bc 05f0 8a3d c657 35bc 5e13 f9bc
000001d0: d263 6fbc 24b2 c13b 154a 56bb 4650 9abb
000001e0: 3a97 15bd 60da 25bd 0bac 923b 1738 1cbd
000001f0: 3b09 31bd e5f9 b8ba 647c 1b3c a48a a43b
00000200: 7503 d4bc da09 42bd fa5b 6dbd 08e9 2dbc
00000210: d7f7 35bd f241 343a 2c34 22bd e963 623c
00000220: ed7b 50bc 8110 e13c 7b36 053c 9cc2 133d
00000230: 49cd e8bc ab85 9a3c 6273 6f3d 7e87 02bc
00000240: 13ff abbb d798 e13b f642 38bd caf4 0738
00000250: c4e4 22bd 3d5b 8a3b f4c9 21bc 3b4f 57bc
00000260: ea9e 97bc 1f05 c3bb 033f 47bd 2d29 17bd
00000270: 7ef4 3abd d992 9dbb 6ff9 84bc 0f1c a3bc
00000280: 954e 2fbb b01f 5dbd 7588 ccbc f03c 61bd
00000290: eee0 1dbc eae1 adbc 4dc5 153c 456f b03b
000002a0: 271d 62bc 76ad dd3b 04df fc3c 2168 d63b
000002b0: 37ce c73a 4707 cfbc 6a5b a4bc 5506 d6bb
000002c0: 7d35 61bc 1ba2 1ebb b1d2 30bd f1f5 38bd
000002d0: f2c7 5dbc 0b8b c13b 94ba bcbc f24e 02bd
000002e0: 34ca 2bbd 6d99 54bd 3b21 33bd 018b 3dbd
000002f0: d3a4 43bc 5672 06bd 9ac4 4dbd 6f78 f6ba
00000300: 3735 2dbd 8c3d 80bc f82e 5abc cad6 f2bb
00000310: 96e6 62bd 3677 9d3c e231 f7bc 5021 18bd
00000320: 6dfb 12bd d0ae 29bd 7904 503a 9452 4ebb
00000330: 05a1 41bd 0afe 51bd f434 2cbd efa0 72bd
00000340: 00ee 32bc 5666 05bd 7611 29bd 1e7e 5dbd
00000350: 4bd6 6bbc 6f97 02bd 5dd5 69bd ad6f 44bd
00000360: ea38 f9bc 45de cabc 42aa 07bd 08a3 adbc
00000370: ac22 263c 5817 ddbc 15ae f0bc a26d 8dbc
00000380: e9f7 4a3b cc8f 063d fc4a 223d 30da 753b
00000390: 87b3 093c c067 133b a63a 02bd df32 38bd
000003a0: 142a 39bd c83c 3fbb 168b 27bd 2110 b2bc
000003b0: 4103 a1bc e2d7 903b 65bc d9bc f88c 0dbd
000003c0: 4bd5 80bd 39b4 88bb 86ac 223c 4b11 57bd
000003d0: f1ae 73bb 1ae3 90bc 6bbb a2b9 9942 89bb
000003e0: ce44 513c 0d90 30bd 6cf4 38bd 4c95 503d
000003f0: a765 17bd c6a0 56bd d750 90ba 9195 43bd
-0.020455295 0.03163175 0.0063098553 -0.032753017 -0.016939033 -0.017366085 0.011502755 0.023557879
0.013752464 -0.04014833 -0.02287998 -0.028544376 0.005187871 -0.03984337 -0.008557213 -0.004445686
-0.020201296 0.0012100786 -0.054308873 0.0043117474 -0.013332752 0.0019253454 0.026846936 0.055825077
0.013067952 0.057851046 0.04228669 -0.011455968 -0.0426414 0.015731666 -0.06279602 -0.026894841
-0.027909227 0.01402723 -0.02233714 -0.00687649 -0.024040066 -0.024758454 -0.027347507 -0.05611185
-0.052223273 -0.061706346 0.004287197 -0.006125281 -0.03279656 -0.051076308 0.008658921 -0.013863839
-0.027512211 -0.0032477851 0.024887083 -0.036386505 -0.013290606 0.013970497 -0.038139705 0.018787134
0.01445027 -0.011738521 -0.016772062 0.03221525 0.010802898 -0.0067229974 -0.019184588 0.0072576096
-0.016660927 -0.038861524 -0.035304144 0.0011315632 -0.031943645 0.00797826 -0.06136736 -0.00038603068
-0.001868123 -0.0135849565 0.0019143705 -0.017914984 0.0147146955 -0.0045836056 0.013527952 -0.02170062
0.008568428 -0.03925059 0.060484793 -0.03251233 -0.04081238 -0.0040579126 -0.011656454 -0.016660906
-0.02650321 -0.028034337 -0.06318354 -0.004032127 -0.033848386 -0.032430705 -0.035133883 -0.025770735
-0.04453875 -0.021533394 -0.04980814 0.006200958 0.007148673 0.013421711 -0.032043055 -0.009683129
-0.024884352 0.0029116056 -0.03531248 0.017169418 0.035723183 -0.0015441261 0.047348812 -0.025025373
-0.01225826 0.06784061 -0.01106829 -0.030404743 -0.014611201 0.0059111286 -0.0032697965 -0.0047092764
-0.036521174 -0.04049146 0.0044760755 -0.03813943 -0.043221693 -0.001411256 0.009490106 0.00502141
-0.025880555 -0.047372676 -0.057949044 -0.010614641 -0.04442581 0.00068762817 -0.039600536 0.013817766
-0.012724859 0.02747369 0.008130665 0.036074266 -0.0284182 0.018862566 0.058459647 -0.007966874
-0.005248913 0.006884675 -0.044985734 3.2414486e-05 -0.03976895 0.004222302 -0.0098748095 -0.013141449
-0.018508393 -0.005951538 -0.048644077 -0.036904503 -0.045643322 -0.0048087654 -0.01623222 -0.01991084
-0.002674972 -0.053985298 -0.024967412 -0.054989755 -0.009636147 -0.021225888 0.009141278 0.005384358
-0.013800896 0.006765063 0.03086806 0.006543175 0.0015243952 -0.025272025 -0.02006312 -0.0065315166
-0.013745663 -0.002420551 -0.04316968 -0.045156423 -0.01353644 0.005906468 -0.023038186 -0.03181357
-0.041940883 -0.05190413 -0.043732863 -0.046275143 -0.011941153 -0.032823883 -0.050236322 -0.0018804203
-0.042287078 -0.015654348 -0.013316862 -0.0074108588 -0.055395685 0.019221883 -0.030175153 -0.037141144
-0.03588431 -0.04142648 0.0007935237 -0.0031482326 -0.0472727 -0.05126766 -0.042042688 -0.05923551
-0.010921001 -0.0325683 -0.041276418 -0.054075353 -0.014394353 -0.0318827 -0.057088245 -0.047958065
-0.030422647 -0.02476419 -0.033121355 -0.021195903 0.010140102 -0.02698867 -0.029379884 -0.017264191
0.003097052 0.03285198 0.039622292 0.0037514083 0.008404619 0.002249226 -0.031794213 -0.04497039
-0.045206144 -0.0029180516 -0.040904127 -0.021736206 -0.019654872 0.0044202665 -0.026579091 -0.034558266
-0.062906824 -0.004171875 0.009928828 -0.052506726 -0.003718313 -0.017686415 -0.00031038685 -0.0041888473
0.012772752 -0.043106128 -0.045154974 0.05092363 -0.036962178 -0.05239942 -0.001101042 -0.04775006

0.bias f4 [128]
00000000: dd4c b5bc 2dd5 06bb 963d c5bd 518e 3dbd
00000010: 87ba 15bf 25c7 15bd ca90 8c3d d48b c8bd
00000020: 5b30 13bd 8c08 32bf 7714 86bd dad9 60bf
00000030: ebf5 31be 7867 2ebd 8e2f 81be df7b e4bc
00000040: c6b0 b6bc 7e11 f2bd 0564 fdbc ac9f 83bd
00000050: fe52 00c0 fd0b 0cbd 446f 85bd 665d 08bd
00000060: d3ef c9be 4936 00bf 2458 f6bd 46a3 ccbc
00000070: be07 0dba fd3a dc3b 9b8c 51bd f87a 95bd
00000080: 2e72 5bbc 55c9 19bd 2d35 fdbc cd5d 56bb
00000090: 52ff 26bd c0fa 08be ae71 f4be fb12 59bc
000000a0: 25b7 46bd 47f3 c7ba 9ee5 c5bc a5f9 973e
000000b0: ae7c 85bd 135c 13bd 0d08 143f 6cbb bbbb
000000c0: 0d22 0bbe 2bad f6bb 3e0d 61bd 5f3e 44bd
000000d0: 729e 9ebd ba18 27c0 e8a6 593e 113f f73e
000000e0: 0a8c 32bd 30a4 0ebf af83 22bd 47bc e9bd
000000f0: cb26 553e aeba d2bc cf42 8ebe 2d57 983e
00000100: 85e7 1ebe c158 01bd 4cd6 8ebf aa8f 75bf
00000110: 1a50 39bd 06e4 a03d c691 963e 61a6 55be
00000120: 462a 22bd deec fbbe efb4 7b3c c546 74bf
00000130: ba80 13bf 2a7c 353e b643 c1be 25db 14bf
00000140: 5f37 fbbc 627a 8dbd c903 303d 6ffc cebd
00000150: 17c5 2ebd 7628 60bd f29b 4fbd f264 4bbd
00000160: ed27 1fbe d800 4dbf 3178 a7bf 6c6e 67bc
00000170: 743a 80bd 5fc3 87bd 039d e93b 3440 c7bd
00000180: 33b8 59bf e74f bfbd 420a bbbd d7e4 cb3f
00000190: 3d8a c1bd 8991 bdbc 9842 bfbe 9a30 7dbe
000001a0: 9829 afbc b45f e0be 64c5 6e3d 029d 75bd
000001b0: 6932 2ebb b428 62bd 3acb 2cbf e1c7 c6bf
000001c0: e90d 47bd fbc0 91be ea3e c8bc 4b9a 91be
000001d0: 6585 66bd f803 473d 1311 11bd 22f5 04bd
000001e0: 2b7b c83d d248 e9bc d6ae 2fbf db9c 03bf
000001f0: 39c7 2dbd 0791 403f c1d0 24be 31e3 1dbe
-0.022131378 -0.002057384 -0.09630887 -0.0462783 -0.58487743 -0.036566872 0.06863554 -0.09792295
-0.035934787 -0.6954429 -0.06546872 -0.87832415 -0.17378967 -0.042579144 -0.25231594 -0.027891098
-0.022301089 -0.118197426 -0.030931482 -0.06426939 -2.0050654 -0.03419112 -0.06515363 -0.033292197
-0.39440784 -0.5008283 -0.1202853 -0.024980199 -0.0005379877 0.006720899 -0.051159482 -0.07298845
-0.013393922 -0.03754552 -0.030909145 -0.0032709718 -0.040770836 -0.13376904 -0.4774298 -0.013249154
-0.048514504 -0.0015254997 -0.024157342 0.2968265 -0.065179214 -0.03597648 0.57824785 -0.0057291295
-0.13587208 -0.0075279674 -0.05494427 -0.047911044 -0.07745065 -2.6108842 0.21255076 0.48290303
-0.043590583 -0.5571928 -0.039676365 -0.11412864 0.2081558 -0.025723781 -0.27785346 0.2975401
-0.15518005 -0.031578783 -1.1159148 -0.9592234 -0.045242406 0.07855992 0.2940809 -0.2086425
-0.039591096 -0.49204153 0.015362962 -0.95420486 -0.57618296 0.17723146 -0.37746972 -0.5814689
-0.030666051 -0.06908108 0.04297236 -0.10106742 -0.04266843 -0.054726087 -0.05068583 -0.049656816
-0.15542574 -0.8007941 -1.3083555 -0.014125448 -0.06261149 -0.06629061 0.007129313 -0.09729043
-0.8504669 -0.09341412 -0.09132816 1.5929211 -0.09450195 -0.023140686 -0.37355494 -0.24725571
-0.021382138 -0.43823016 0.058293715 -0.059964187 -0.002658034 -0.0552146 -0.674976 -1.5529748
-0.04859725 -0.28467545 -0.024444062 -0.2843803 -0.05627956 0.04858777 -0.035416674 -0.03246034
0.097891174 -0.028477106 -0.68626153 -0.5141122 -0.04242632 0.75221294 -0.16095258 -0.15418698

2.weight f4 [64, 128]
00000000: e2e5 99bd 8320 e63c 66cf 33bc dbaf 77bd
00000010: 0d92 613c ca81 0cbc 97aa 06bd 026d ae37
00000020: 7922 673d c850 c8bd a1f4 47bd 1970 283d
00000030: cc8f d6bd e193 98bd 0d71 58bd ff95 4bbc
00000040: 9fb8 be3d 209e 103d 257a 18bd baaf 783d
00000050: 49d7 4ebd 241d 04bb 79af 17bd d123 89bd
00000060: 946c dd3c 6ff4 0bbd 1797 bc3c b46d fb3b
00000070: 55e2 68bc 2cc0 e2bc c1c9 8cbd 3cd7 e8bd
00000080: 6b69 6dbc 3850 97bd be15 3a3d 8671 e93c
00000090: f846 97bd b69c 1fbd adfc 43bd c86b 243c
000000a0: 65ab a8bd 1b03 6b3b 29eb 3cbd bd30 8fbb
000000b0: d5f4 8d3d 40f7 4dbd 4177 ac3c 5bd1 99bd
000000c0: 916a d03a c697 19bc e305 22bd 63cc 7cbd
000000d0: febb 80bd 4306 28bd a462 cfbb 025a 9ebb
000000e0: 5b82 2d3d 0cfe 8fbd c5c7 22bd 8054 a53d
000000f0: 6298 83bd 260a 1bbd b870 8ebd 4e57 94bc
00000100: f86b 1bbc 3ad4 87bd 1421 66bd 77de fbbd
00000110: 8d10 e8bd 6258 f93c 8c44 a43b abff dcbd
00000120: 0232 c4bd 028c 67bd 6df1 f1bd 4ee8 103d
00000130: 3c92 acbd e573 6c3a d8d7 f7bd 07d1 47bd
00000140: 3db9 65bd 1f39 f13c 9210 c6bd 8452 47bd
00000150: d6e6 e6bd 7c70 b03d b3ca e3bc 8683 4e3d
00000160: 25e3 2c3c 1753 87bd 1575 a7bc 7ff0 babb
00000170: cc98 d9bd 56a7 b0bd 4b97 1d3d 543b 54bd
00000180: e967 0b3d 50b0 793d 9f08 bfbc 0ffe d4bd
00000190: c185 25bd b4ea b03c dc40 943c 2a90 8ebd
000001a0: fd7f 96bd f59e ebbd 687c c0bc 76f5 40bd
000001b0: 97fc 693c b438 d5bc cde5 11bd a97f dc3c
000001c0: 7a13 81bc c57d 4dbc c359 9fbd bfac 653c
000001d0: 419f 84bd 2092 e43c 6a26 883d 1394 4b3d
000001e0: 3510 7e3b e683 903c ac72 d3bd db86 8d3c
000001f0: 668f 613d a25c aabd 9bba 16bd 4f45 a63b
00000200: 1a09 113d e03d 443d 66e2 d4ba 52c2 643d
00000210: af77 4ebe 355d 59bd d721 6b3c 5d5a 00bd
00000220: 8b6f 77bd b34e 60bb 8c6b 5a3d d964 1dbe
00000230: 432f f6bd 3144 99bd 17dd f43c 5ca2 fbba
00000240: 998e 0c3d f49e 42bd 2c8b 1dbc 63f6 9cbc
00000250: b7f0 1bbe b072 4f3d 4175 89bc 8986 823c
00000260: e07c cdbd e8f3 a23c dc1f 4e3d 6196 e9bd
00000270: 6467 6c3d 9888 6abd f0f4 4fbd 6a2d 13bd
00000280: 7484 78bd e8fa 92bd 362c 55bc 17eb 223d
00000290: d917 003d d7e5 c2bd 2c7d 8cbc 1486 a9bd
000002a0: 4697 443c dc52 1638 a8c9 8ebb 7604 f3bb
000002b0: 153a 45bd b41a 34bc 426c 4dbd 4f9d 44bb
000002c0: 13d1 5fbd e083 b53b cf35 57bd 79cf d7bd
000002d0: 4e5e 883d 785e 52bd 803a 843d d863 4dbe
000002e0: 891b 283d f82e 17be feb7 7b3d dce0 a5bc
000002f0: b523 43be bc35 f03c a73b b2bd 70a4 65be
00000300: 255c 1cbd 0a01 2cbb dae2 c1bd 6aa6 6dbd
00000310: a048 843d 5666 3ebe de86 693d b56d 17bd
00000320: 6721 323d 38dd 803d d7b3 7cbe ef41 31be
00000330: 2ded 19be 4908 f9bb 8570 0dbe cb5f eebd
00000340: 767a 233d bbac 063b 6030 9f3d c329 663c
00000350: 4f73 ebbc 7ba1 c0bc 6d15 23bd 5f92 eb3c
00000360: 706b 323d dd11 0cbd 91c9 0dbe 7fee b0bb
00000370: 86cc b8bd 7b09 ab3c dbc2 763d 7216 df3c
00000380: 9f2c 22bd f6a7 853d 93bd 2dbd 3807 bcbd
00000390: 79ab 3dbe fcce 8b3d c280 16be 1e87 4ebe
000003a0: 7907 753d 2747 fdbd c40d 6ebd 304e f8bc
000003b0: f42f 493d e7f3 02bd 94d3 b43b 7a35 48bd
000003c0: fab6 a03d a376 b43d c769 503c 4c8c 80bd
000003d0: 4b99 b93d 5af8 8f3b 202a d7bc 4363 bb3d
000003e0: 5ace acbd 792d e3bb 62d9 33be 6e24 0bbe
000003f0: 2d1a c3ba 012c 79bd a95f 8ebc d859 8abd
-0.0751455 0.028091675 -0.010974741 -0.060470443 0.013767731 -0.008575866 -0.03287753 2.0793177e-05
0.05642936 -0.09781033 -0.04881728 0.04112253 -0.10476646 -0.07450081 -0.05284219 -0.012425899
0.093125574 0.03530705 -0.03722586 0.06071446 -0.05049828 -0.002015897 -0.03703258 -0.066962846
0.027029313 -0.034168657 0.023021264 0.0076729897 -0.014214118 -0.027679525 -0.06874419 -0.11369178
-0.014490466 -0.073883474 0.04543089 0.028496515 -0.07386583 -0.03896781 -0.047848392 0.010035463
-0.08235816 0.0035860005 -0.046122704 -0.0043698237 0.06931464 -0.050284624 0.021052958 -0.075106345
0.00159009 -0.0093745645 -0.039556395 -0.061718356 -0.06285857 -0.041021597 -0.0063288976 -0.004832507
0.042360645 -0.070308775 -0.039741296 0.08072758 -0.06425549 -0.037851475 -0.06955093 -0.018108036
-0.009486191 -0.06632276 -0.05618389 -0.12298291 -0.11331282 0.030437652 0.0050130542 -0.10790952
-0.09579851 -0.056530006 -0.118136264 0.035377793 -0.084263295 0.0009019955 -0.12101716 -0.04878333
-0.05608486 0.029446183 -0.09671129 -0.048662677 -0.11274497 0.08615205 -0.027806615 0.0504184
0.010552202 -0.06607645 -0.020441571 -0.005704939 -0.10624847 -0.08625667 0.038474362 -0.051814392
0.034034643 0.06095916 -0.02331954 -0.1040002 -0.04041076 0.02159629 0.018097334 -0.06961091
-0.073486306 -0.11504928 -0.023496822 -0.04710909 0.0142814135 -0.026028015 -0.035619546 0.026916342
-0.015756357 -0.012542193 -0.077807926 0.014018237 -0.06475688 0.02790171 0.06647952 0.04970176
0.0038766984 0.01764102 -0.10324606 0.017276218 0.055068396 -0.083184496 -0.036799055 0.00507418
0.03540907 0.04791057 -0.0016241788 0.05584938 -0.20162843 -0.053067405 0.01435133 -0.031336177
-0.06040911 -0.0034226596 0.05332522 -0.15370502 -0.12020733 -0.074837096 0.02989058 -0.0019198167
0.03431568 -0.04751487 -0.009615701 -0.019160455 -0.15228544 0.050646484 -0.016779544 0.015933292
-0.10033584 0.019891694 0.050323352 -0.114056356 0.05771579 -0.057259172 -0.0507707 -0.035931982
-0.060673192 -0.07176763 -0.013011029 0.03977498 0.031272743 -0.09516495 -0.01714953 -0.082775265
0.011998957 3.5839956e-05 -0.0043575354 -0.0074163033 -0.048151094 -0.010992695 -0.05015207 -0.003000099
-0.054642748 0.0055394024 -0.05254155 -0.10537619 0.06658612 -0.051359624 0.064564705 -0.20057619
0.041041885 -0.14764011 0.061454765 -0.020248823 -0.1905659 0.029322498 -0.08702784 -0.22426009
-0.038173813 -0.0026245737 -0.094670966 -0.058020033 0.064591646 -0.18593726 0.057013385 -0.03696986
0.043488886 0.06292194 -0.24677978 -0.17310308 -0.15031882 -0.0075998646 -0.13812454 -0.11639365
0.03991171 0.0020549733 0.07772899 0.014048043 -0.028741507 -0.0235145 -0.039815355 0.028756319
0.04355949 -0.034196723 -0.13846423 -0.0053995247 -0.09023385 0.020878544 0.060244422 0.027232382
-0.039593335 0.06526177 -0.04241712 -0.09181064 -0.18522443 0.068265885 -0.14697555 -0.2016873
0.05982158 -0.12367087 -0.058118597 -0.03031072 0.049117997 -0.031970885 0.005518386 -0.048879124
0.078474 0.08811691 0.012720532 -0.062767595 0.090624414 0.0043936195 -0.026265204 0.09149792
-0.08437796 -0.006932911 -0.17563394 -0.13588116 -0.001488512 -0.06083298 -0.017379599 -0.067554176

2.bias f4 [64]
00000000: 0b30 a2bb 4eee 72bd 1d96 8b3e 438d c63e
00000010: 7ff3 95bd c42f 8dbd 61a1 1ebd b163 1a3d
00000020: e416 22be 2be7 1abe 9a4b 2dbc e1d7 0fbe
00000030: 9667 80bf 1eaa 25be 7d29 6c3e 0a84 a0bd
00000040: d937 c0bd fad8 77be 2164 27be 83d0 76be
00000050: f1ae fcbd c085 8ebd 7fe2 dcbd 55a6 5ebc
00000060: 4cb3 87bd 533d 9ebd 6c30 e5bd d1bc 673d
00000070: 9681 1dbe ac5a 1cbe f6f2 0dbe a669 363f
00000080: 0af2 ffbd 4864 cd3e f266 50be 6a27 1bbd
00000090: 4f2a 5b3e 7d76 eabd 4029 10bd 1b1c 2a3f
000000a0: c4f5 403b 7bc3 5c3e cfde 103d 22db 063c
000000b0: 10ab 02be 9956 d73c 9077 1c3c 8bb8 d6bd
000000c0: be05 153f 1581 ca3b 0a39 623d 50e9 863c
000000d0: 061c 6ebc 8ea4 52bd 66a5 24be 597e 8cbe
000000e0: 474a fbbc 37ba b73d 15f0 253c 73a3 443f
000000f0: f5fa e2bd a2d0 7e3a 2409 59be 5c8a 0d3f
-0.004949575 -0.059309296 0.27262965 0.3877965 -0.07321834 -0.06893876 -0.03872812 0.03769273
-0.15829045 -0.15127246 -0.010577107 -0.14047195 -1.0031612 -0.16178176 0.23062702 -0.078376845
-0.09385652 -0.24203864 -0.1634679 -0.24102978 -0.12338055 -0.069591045 -0.10785388 -0.013589461
-0.06625995 -0.077265404 -0.11190876 0.056576554 -0.15381464 -0.15268964 -0.13862213 0.71254957
-0.12497337 0.4011557 -0.2035177 -0.037879385 0.21402858 -0.11448381 -0.03519559 0.66449136
0.0029443363 0.21558945 0.035368737 0.008230956 -0.12760568 0.02628641 0.00954999 -0.104844175
0.58211887 0.0061799386 0.055230178 0.016468674 -0.0145330485 -0.051426463 -0.1607872 -0.27440146
-0.030675067 0.089710645 0.010128041 0.76811904 -0.110830225 0.000972042 -0.21194893 0.55289245

4.weight f4 [12, 64]
00000000: c8c2 d23d fb77 fcbd c1a4 93bd b79a 82bd
00000010: 8655 0dbe 833b 12be 43e3 863d 2738 b6bd
00000020: ada1 593c 1445 57bd 869f fdbb d3d6 1b3d
00000030: 9894 13be 3d3f 823d 1fe4 6a3d 76fc e6bd
00000040: f762 8cbd 6ad9 42bd 87dd acbc f1e2 4f3d
00000050: a8da bf3d ecd5 f6bd d257 a13d 4e77 39bd
00000060: bd93 dabd 3b13 6b3d 8a8d 8cbc a62b 94bd
00000070: f075 eabc c697 033e 9fbb 833c a65f 90bd
00000080: 80ca 803d 3046 dcbd 1c2a ca3d 7f51 82bd
00000090: 4035 03be 4265 853d 98f0 7cbd 0849 7cbe
000000a0: 5353 aebd c1b0 b9bd f876 dbbc 65db e1bd
000000b0: 98e8 813c e48e bcbd d79e f9bd c857 013e
000000c0: 99f5 08be c64a 603d a7c3 cebd 6e24 903c
000000d0: 9024 bfbc 6045 97bc 2fb5 33bd 8009 5cbe
000000e0: 5875 893d 2228 c7bb 3d6c fcbc 614c 11be
000000f0: bd38 c93c f276 133d 8880 d73d be30 de3a
00000100: 12e6 bb3d a0bc dabd dc2d 5fbe 3021 aabd
00000110: ba16 a13d de40 703d b0e0 dabd 78dd 9bbd
00000120: f2a5 133b 541b 263d 8d74 8abd 382a 3bbd
00000130: c75b d9bd ab7d 4dbd 714f 0b3c 1c3b 7d3d
00000140: 1180 72bd 2e0d adbd 4514 d0bd 47c3 0abe
00000150: 8135 12bd 2aa4 7abb 4930 3c3a d0c2 973c
00000160: 1175 e6bd 92a0 703c e6e3 b1bc ecc3 f03c
00000170: f918 1b3d c1bd 893d 16cb 9f3d f908 83bd
00000180: 49cc bfba 9ca2 83be 535d b7bd 618f 9b3d
00000190: 0a38 2bbe c077 31bd 455a dd3d 3acd c2bd
000001a0: da05 1abc 53a3 01be c229 16be 1f31 84be
000001b0: 35aa 4139 1e9c 95bc ff8f 1ebc 6f7b bd3d
000001c0: 6b9f 0abe a4e4 87bd b63c 903c 5a12 553d
000001d0: 56c5 9cbd ba6f 4d3d 8f37 383d b942 ebbd
000001e0: 4623 453d e041 67be 9c56 a03d 3200 dabd
000001f0: 7b80 853c f733 08be 48ec bc3d 5be7 f0bd
00000200: bbbc 95bc c7df 8fbc 0caa d13c 1b3b 0f3e
00000210: 2d08 2c3c 62b7 52bd 1a78 ad3d 1006 b43d
00000220: ab7b 3b3d 0ab6 d73c 8be1 f7bd dfde 253e
00000230: 0448 20bd e763 a03d 568a b83d 05fe 6c3a
00000240: a0dc 6fbe d559 f9bc 706d bf3c c0a4 67bd
00000250: f894 3bbe e72b 2a3c 816f cbbc 2473 97bd
00000260: 972a b8bc 5f11 f23d 4f8e 0dbd 6a84 1f3d
00000270: 5f93 113e 8714 38be c072 45bc 0a13 7ebd
00000280: 1e4a 823d fe24 8e3c 7aaf 95bd 8480 a7bd
00000290: 6f78 60bd 1a5d 093d 8177 f3bc 8400 923d
000002a0: 7c45 91bd 8cde 303b 87f1 703d 0f66 003e
000002b0: 07a9 d03d acd4 533d 610a ab3d 939a 8a3d
000002c0: 2e26 f8bb 2f3d c93d 1bde 11bd 4fda c53d
000002d0: afb6 a43d 8ca2 dbbc a014 023e 674e 203e
000002e0: 2328 903d c613 6b3d 7b73 03bc 4bdc 93bd
000002f0: bfac 973c 1468 c4bc f9f3 5dbe fa95 3b3d
00000300: 1741 9e3d 7e84 da3d fc50 a9bd a346 c8bd
00000310: 0231 583d 68e7 98bd 750a 283d 775e c0bd
00000320: 6354 a2bd 0860 a2bd 22c9 d13d a246 993d
00000330: e2eb 2bbe 2ab3 d43d 12e0 5c3a e1ce 13bd
00000340: 2787 87bd 0c6e a63d b7ce 9a3d 84b9 ac3c
00000350: 835d 58bd efad 933d a2d2 453d c4d6 f23d
00000360: 981e b8bd 1c4b c6bd cd00 b83d 8e7f 6ebd
00000370: 5265 bfbd 24b1 7c3c efd5 c5bc 2351 b5bd
00000380: 9c9e 573d 28af 94bd f940 cb3d 9276 4d3c
00000390: 995f 9cbe 1a7f d43d 7c2a 04bd 6851 29be
000003a0: e4c4 ee3c 7fe6 fc3c 101a 3a3d be9a b4bd
000003b0: 7896 89bd 55af 16bd 6dab 20bc 7f1c b73d
000003c0: e773 c6bc b337 a23c 8054 2b3d 4a12 e93d
000003d0: 1870 dabc d1cb 53bc c55f 7f3b 265c 87bd
000003e0: 0562 603d 51c5 acbd e6f7 d2bc 3574 bcbc
000003f0: 4065 ea3c 51d0 6b3d 4c5e 34bd 2e95 cfbb
0.10291058 -0.12327572 -0.07209159 -0.06377166 -0.13802156 -0.14280514 0.065863155 -0.08897429
0.013283175 -0.052556112 -0.007739964 0.03804667 -0.14412153 0.06359718 0.05734646 -0.11278622
-0.068548135 -0.047570623 -0.021101726 0.050753538 0.09367877 -0.12052521 0.078780785 -0.045279793
-0.1067271 0.057391386 -0.017157335 -0.07234888 -0.02862069 0.12850866 0.016080676 -0.070494935
0.06288624 -0.10755575 0.09871313 -0.063632004 -0.12813282 0.06513454 -0.061752886 -0.24637234
-0.085119866 -0.09066916 -0.026790127 -0.11028174 0.01585798 -0.09206942 -0.121884994 0.12631142
-0.13374938 0.05475881 -0.100959115 0.017595496 -0.023332864 -0.018465698 -0.043873962 -0.21487999
0.06711835 -0.0060777823 -0.03081333 -0.14189292 0.024563188 0.036002107 0.10522562 0.0016951782
0.09174742 -0.106805086 -0.21794838 -0.08307111 0.07865663 0.058655612 -0.10687387 -0.07610601
0.002252933 0.040553406 -0.067605115 -0.04569456 -0.10613208 -0.050168674 0.008502827 0.06182395
-0.059204165 -0.084497795 -0.10160116 -0.13551055 -0.035695557 -0.0038244822 0.0007178826 0.018525511
-0.112527974 0.01468672 -0.021715116 0.029390298 0.037865613 0.06725646 0.078024074 -0.06398196
-0.0014633025 -0.2571 -0.08953347 0.07595707 -0.16720596 -0.043327093 0.10808233 -0.095118
-0.009400809 -0.1265996 -0.14664367 -0.25818726 0.00018469321 -0.018262919 -0.009677886 0.09252059
-0.13537376 -0.066354066 0.017607074 0.052019455 -0.07654826 0.05015538 0.04497486 -0.11487336
0.048129342 -0.22583723 0.078290194 -0.106445685 0.016296616 -0.13301073 0.092247546 -0.117628776
-0.01827847 -0.01756276 0.02559378 0.1398739 0.010499996 -0.05144442 0.08470173 0.08790219
0.045772236 0.02633192 -0.12103566 0.161983 -0.03913118 0.07831555 0.090107605 0.00090405374
-0.23424006 -0.030438343 0.023367614 -0.056553602 -0.18318546 0.010386444 -0.024833443 -0.07395008
-0.022481246 0.118197195 -0.034559544 0.03894464 0.14216374 -0.1797658 -0.012051284 -0.062029876
0.06361793 0.017351624 -0.0730886 -0.08178809 -0.054802354 0.033536054 -0.02972007 0.071290046
-0.07093331 0.0026988117 0.05882409 0.12538932 0.101884894 0.05171649 0.08351589 0.06767764
-0.0075729107 0.09826123 -0.035612207 0.0966078 0.08042657 -0.026810907 0.1270318 0.15654908
0.070389055 0.057391904 -0.008023138 -0.07219752 0.018514989 -0.02397541 -0.216751 0.045797326
0.07727259 0.10669802 -0.082674 -0.09779098 0.052781112 -0.07466012 0.041025598 -0.09393018
-0.07926252 -0.07928473 0.10243441 0.07484175 -0.16789201 0.10385735 0.0008425723 -0.036085967
-0.06617575 0.081264585 0.07558959 0.021084554 -0.052823555 0.072109096 0.04829658 0.118573695
-0.0899021 -0.09682295 0.08984528 -0.058227114 -0.09345497 0.015423093 -0.024149863 -0.08853366
0.052641496 -0.07259971 0.09924502 0.012540476 -0.30541685 0.10375805 -0.03226708 -0.1653496
0.02914662 0.030871628 0.04543501 -0.08818577 -0.06718153 -0.036788303 -0.009806496 0.08940982
-0.024225188 0.01980195 0.041828632 0.113804415 -0.026664779 -0.012927012 0.0038966995 -0.06609373
0.05478098 -0.084360726 -0.025752973 -0.02300463 0.028612733 0.057571713 -0.04403524 -0.0063349223

4.bias f4 [12]
00000000: ae9f 29bd 1bf9 e7bd 19a7 603e 5906 c83d
00000010: b9d3 273d d871 04be 744a 51be 242a 133f
00000020: 89d2 3dbd 5f44 33be 1311 88ba 3d85 293e
-0.041412048 -0.1132681 0.21938743 0.09766836 0.0409734 -0.12934053 -0.20438558 0.57486176
-0.04634336 -0.1750655 -0.0010381065 0.16554733

6.weight f4 [3, 12]
00000000: 5dd5 c23d f73a 18bd dc53 54bd 27c3 93be
00000010: 8b60 dc3d 3278 39b9 dd9a e0bd 807a 053e
00000020: 4233 3d3e e40b e7bd fe19 11bd 264d 95be
00000030: 0e1c a0bd 2acc 94bd a304 26be 10de 893e
00000040: 0cd9 913d fc4a e33c e16b aebc 270a 13be
00000050: 552b efbc 2182 aebd bc7a 2c3e 3d33 10be
00000060: 9aa7 7bbb 6a85 e8bd 8dcd 5dbe 29dc 413d
00000070: d5f0 0d3e 0b21 893e e637 0fbe 9d91 993e
00000080: 3d54 b3be 4f9f b7bc 184a 073e 52ae 8cbd
0.09513352 -0.03716561 -0.051837787 -0.28859827 0.107606016 -0.00017687751 -0.10967038 0.13035011
0.18476585 -0.11281565 -0.03542518 -0.29160422 -0.07817851 -0.07265504 -0.16212706 0.26927233
0.071214765 0.027745716 -0.021291675 -0.14359342 -0.029195467 -0.08520914 0.16843694 -0.14082046
-0.003839946 -0.11353572 -0.21660443 0.0473291 0.13861401 0.26783022 -0.13986167 0.29993907
-0.35025206 -0.022414831 0.13211858 -0.068691865

6.bias f4 [3]
00000000: fe49 723d fbde c1bd e47c 1b3e
0.059152596 -0.09466358 0.1518436
